checkpoints/trained_weights.ckpt (torch_old, 993213 bytes, 226 tensors)

exp_avg f4 [8, 6, 3, 3]
0	0x3500adeb	4.79368e-07
1	0x35036768	4.895178e-07
2	0x34a880b4	3.1386082e-07
3	0x344fede8	1.9364927e-07
4	0x3413782c	1.373416e-07
5	0xb384f106	-6.190571e-08
6	0xb41ab161	-1.4406898e-07
7	0xb44c97cc	-1.9054204e-07
8	0xb470e618	-2.243545e-07
9	0x345ec8e5	2.0748446e-07
10	0xb39895b6	-7.105284e-08
11	0xb3fbcca2	-1.1725321e-07
12	0xb28bd580	-1.6278818e-08
13	0xb4d544eb	-3.9724486e-07
14	0xb4dec7fd	-4.1496233e-07
15	0xb4e5cbe1	-4.2802915e-07
16	0xb5440605	-7.302445e-07
17	0xb51e3846	-5.8941475e-07
18	0x368dbf19	4.224374e-06
19	0xb7b80fd0	-2.1941873e-05
20	0x367dc44f	3.7814204e-06
21	0x37f41e3e	2.910115e-05
22	0x37583f83	1.2889391e-05
23	0x381fc9fd	3.809667e-05
24	0xb7d6eccc	-2.5621055e-05
25	0x380a86b1	3.3027205e-05
26	0x387b044e	5.9847072e-05
27	0xb733ee3e	-1.07247015e-05
28	0xb7cf78c8	-2.4732566e-05
29	0xb81c6bcf	-3.7293703e-05
30	0xb61aca91	-2.3065697e-06
31	0xb74936d8	-1.1993303e-05
32	0xb68776de	-4.0371515e-06
33	0x3688340a	4.059174e-06
34	0x371de3e3	9.410988e-06
35	0x36cb36a3	6.056232e-06
36	0xb56b776c	-8.7718104e-07
37	0xb591a724	-1.0851986e-06
38	0xb5cc8604	-1.5238188e-06
39	0xb5845187	-9.858494e-07
40	0xb5998d10	-1.1440443e-06
41	0xb5cdc294	-1.533032e-06
42	0xb556743c	-7.9890356e-07
43	0xb571dbd6	-9.00994e-07
44	0xb5bb8ce4	-1.397359e-06
45	0xb6896016	-4.094104e-06
46	0xb68af2c3	-4.1409817e-06
47	0xb68c7f10	-4.187117e-06
48	0xb687bf3a	-4.045575e-06
49	0xb68645c2	-4.001632e-06
50	0xb687534d	-4.033011e-06
51	0xb54423a2	-7.306754e-07
52	0xb51b4ddc	-5.78553e-07
53	0xb557e476	-8.0426196e-07
54	0xb5a36f88	-1.2176906e-06
55	0xb58f9b99	-1.0699615e-06
56	0xb576c9d7	-9.1935857e-07
57	0xb58cc5af	-1.0488346e-06
58	0xb5724296	-9.024892e-07
59	0xb54b3327	-7.569783e-07
60	0xb3b55968	-8.444732e-08
61	0x340fd080	1.3393765e-07
62	0x343f00ea	1.7788594e-07
63	0xb5c3846a	-1.456717e-06
64	0xb61228fa	-2.1779547e-06
65	0xb5d570dc	-1.5902583e-06
66	0xb522734e	-6.0517493e-07
67	0xb592e1af	-1.094353e-06
68	0xb51970f3	-5.7161304e-07
69	0x34a134df	3.0027056e-07
70	0x33b3d9ef	8.374979e-08
71	0x34dafc87	4.0789402e-07
72	0xb7d29a55	-2.5105817e-05
73	0x3854d99d	5.0747407e-05
74	0x38092502	3.269781e-05
75	0x354e0d91	7.676072e-07
76	0x383c23dd	4.4856093e-05
77	0x383c9ea0	4.4970424e-05
78	0x368205bf	3.874971e-06
79	0x365b777d	3.2703094e-06
80	0x37d18346	2.497587e-05
81	0xb68b9f00	-4.161033e-06
82	0x37169ce7	8.977228e-06
83	0x372cef86	1.0307767e-05
84	0x38128e7e	3.494182e-05
85	0x37f60487	2.9327593e-05
86	0x3802f070	3.121834e-05
87	0x37bf075a	2.2772398e-05
88	0x37904844	1.7199789e-05
89	0x37040565	7.869069e-06
90	0xb616e814	-2.248683e-06
91	0xb6602d3e	-3.3404935e-06
92	0xb624d3b0	-2.4561123e-06
93	0xb6172dfe	-2.2527524e-06
94	0xb650e0dd	-3.1125303e-06
95	0xb603cca8	-1.9639647e-06
96	0xb603448e	-1.9560425e-06
97	0xb6384c40	-2.746252e-06
98	0xb5e59626	-1.7105529e-06
99	0xb62a9023	-2.5415873e-06
100	0xb6307ced	-2.629876e-06
101	0xb612a099	-2.1849175e-06
102	0x34eb7bfb	4.386237e-07
103	0x3511eecf	5.436422e-07
104	0x359c8818	1.1662514e-06
105	0xb51bdba7	-5.8061636e-07
106	0xb4d4fc5f	-3.96717e-07
107	0x34059066	1.2439122e-07
108	0xb4520bf3	-1.9562121e-07
109	0xb49e7cac	-2.9520504e-07
110	0xb4d0d4a9	-3.889775e-07
111	0xb505de78	-4.9870096e-07
112	0xb52cfadb	-6.4440036e-07
113	0xb543fe0c	-7.301285e-07
114	0xb4cdd84b	-3.83416e-07
115	0xb50ed277	-5.320539e-07
116	0xb523e169	-6.1050247e-07
117	0xb50bc728	-5.2071346e-07
118	0xb550cc07	-7.7782937e-07
119	0xb533b20a	-6.694178e-07
120	0xb4b3c245	-3.3482698e-07
121	0xb50d114b	-5.255176e-07
122	0xb4e413bc	-4.2482668e-07
123	0x335de4c0	5.166362e-08
124	0xb29f2913	-1.8528715e-08
125	0x3243ca7f	1.1396536e-08
126	0xb72f15f0	-1.0435921e-05
127	0x372ceb84	1.0306834e-05
128	0x3707cfa9	8.094977e-06
129	0xb81fe34d	-3.8120244e-05
130	0x370543ef	7.943235e-06
131	0x385dc603	5.287492e-05
132	0xb7e65c6f	-2.746118e-05
133	0x37851200	1.5863217e-05
134	0x371a7640	9.2066475e-06
135	0xb7c6903f	-2.367061e-05
136	0xb79f0713	-1.8957571e-05
137	0xb74f387a	-1.2351311e-05
138	0x37194db1	9.1376e-06
139	0x3652343d	3.1322845e-06
140	0x377ec22e	1.5184791e-05
141	0x378bf0ef	1.6682285e-05
142	0x37d8322c	2.577257e-05
143	0x37847694	1.5790843e-05
144	0xb51e0be0	-5.8876867e-07
145	0xb638e62e	-2.7552119e-06
146	0xb5edc1ad	-1.7714243e-06
147	0xb54ab5da	-7.5515493e-07
148	0xb6424e71	-2.8953912e-06
149	0xb5e8e14a	-1.7350915e-06
150	0xb5166d05	-5.6038e-07
151	0xb62b3ada	-2.5515242e-06
152	0xb5bed5a8	-1.4218285e-06
153	0xb668fdfa	-3.4718528e-06
154	0xb683754f	-3.9177608e-06
155	0xb680287c	-3.8194103e-06
156	0xb61240c7	-2.17934e-06
157	0xb6260245	-2.4737249e-06
158	0xb60ca02c	-2.0954858e-06
159	0x35b55b0e	1.3512051e-06
160	0x359f27bc	1.1857987e-06
161	0x35ccb395	1.525145e-06
162	0xb4475c9d	-1.8567012e-07
163	0xb5423a2b	-7.235528e-07
164	0xb5891c5f	-1.0215552e-06
165	0xb4f35946	-4.5327232e-07
166	0xb580cf4a	-9.597072e-07
167	0xb5a3628b	-1.2173126e-06
168	0xb495027e	-2.7755226e-07
169	0xb53808c4	-6.8558097e-07
170	0xb57168d2	-8.993203e-07
171	0xb549f854	-7.52397e-07
172	0x33ffde9b	1.19148545e-07
173	0x352f7080	6.535629e-07
174	0xb4959b00	-2.786619e-07
175	0x3508865f	5.0859484e-07
176	0x356dba3e	8.85604e-07
177	0x34985dd9	2.838049e-07
178	0x357ee8b2	9.496099e-07
179	0x35949e73	1.1072974e-06
180	0x3726a43d	9.932611e-06
181	0xb5865a1b	-1.0010002e-06
182	0x3508628d	5.080736e-07
183	0x372b5188	1.0211377e-05
184	0xb88b64c0	-6.646803e-05
185	0xb85af658	-5.2204676e-05
186	0x3817bebd	3.6178844e-05
187	0xb66c2d70	-3.5193189e-06
188	0xb7b7c126	-2.1905242e-05
189	0xb6dbcb5c	-6.5503827e-06
190	0xb707f650	-8.103976e-06
191	0xb61fc430	-2.3807042e-06
192	0x3795b79c	1.7847684e-05
193	0x370ce1da	8.397235e-06
194	0x36efca14	7.14628e-06
195	0x3751e25f	1.2510077e-05
196	0x3720c1bc	9.5818505e-06
197	0x36d31f07	6.291902e-06
198	0x359e7caf	1.1808205e-06
199	0xb5b6af3a	-1.3611054e-06
200	0x35607eed	8.3631204e-07
201	0x35b7b024	1.3685826e-06
202	0xb5b0e894	-1.3180711e-06
203	0x356f9400	8.9249806e-07
204	0x3572c829	9.0443297e-07
205	0xb5e5dcf5	-1.7126137e-06
206	0x34e5c603	4.2798646e-07
207	0x35a59711	1.2337424e-06
208	0x3551e3c1	7.818999e-07
209	0x355d2865	8.23877e-07
210	0x3684827f	3.9490983e-06
211	0x365d5ef4	3.2986836e-06
212	0x365afa3b	3.2630185e-06
213	0x36012beb	1.9248062e-06
214	0x35a4d649	1.2281317e-06
215	0x3589a48a	1.0255183e-06
216	0xb44d7d00	-1.9137588e-07
217	0xb4839179	-2.4506497e-07
218	0xb4496d64	-1.875938e-07
219	0xb577293c	-9.2074674e-07
220	0xb56885e1	-8.6621554e-07
221	0xb516d881	-5.619441e-07
222	0xb58fa793	-1.0703101e-06
223	0xb58b2768	-1.0367776e-06
224	0xb5448128	-7.3203637e-07
225	0xb48d6915	-2.6339754e-07
226	0xb4be820a	-3.5484874e-07
227	0xb4ab4e20	-3.1908075e-07
228	0xb4e12210	-4.19343e-07
229	0xb4e2bb89	-4.223223e-07
230	0xb4c95753	-3.7502704e-07
231	0x33b7300e	8.530343e-08
232	0xb30f95fa	-3.3431185e-08
233	0xb4509778	-1.9426614e-07
234	0x36747b8c	3.6430747e-06
235	0xb75a21f4	-1.3001718e-05
236	0xb793f82d	-1.7639331e-05
237	0xb7d39817	-2.5223982e-05
238	0x383b67a7	4.4680808e-05
239	0xb783898e	-1.568047e-05
240	0xb77fbabc	-1.5242662e-05
241	0x3739bab5	1.107033e-05
242	0xb6d80744	-6.4381475e-06
243	0xb81b4764	-3.7021367e-05
244	0xb7154eb1	-8.899414e-06
245	0xb6443ca3	-2.9241571e-06
246	0xb70b5127	-8.30394e-06
247	0x36d72d86	6.412799e-06
248	0x3796baf7	1.7968456e-05
249	0x3721af24	9.637126e-06
250	0x37ced642	2.4656885e-05
251	0x37b1c991	2.1193906e-05
252	0xb60c9f3a	-2.0954308e-06
253	0xb5ccde81	-1.5263942e-06
254	0xb4e0cdac	-4.1872897e-07
255	0xb606963d	-2.0055006e-06

exp_avg_sq f4 [8, 6, 3, 3]
0	0x2d0671f7	7.642323e-12
1	0x2d0beb73	7.9535155e-12
2	0x2cbae9a1	5.312376e-12
3	0x2d35b65f	1.0329153e-11
4	0x2d2bb7af	9.761011e-12
5	0x2ccd60a3	5.8371793e-12
6	0x2d1b1d57	8.817245e-12
7	0x2d15830a	8.498766e-12
8	0x2cae2788	4.9497663e-12
9	0x2d112c5c	8.2521455e-12
10	0x2d1719cf	8.589087e-12
11	0x2ccb156f	5.7719866e-12
12	0x2cd8fb00	6.166956e-12
13	0x2cf005a7	6.821838e-12
14	0x2caec0cb	4.9667818e-12
15	0x2c5f6a8d	3.1749354e-12
16	0x2c885435	3.8747013e-12
17	0x2c61df61	3.2098423e-12
18	0x35d25679	1.5671386e-06
19	0x35bfdfe1	1.4295766e-06
20	0x34eee7ee	4.4499706e-07
21	0x3543acf7	7.289486e-07
22	0x346ecc91	2.2239898e-07
23	0x3438be29	1.7205515e-07
24	0x3430ada7	1.6454452e-07
25	0x34313707	1.6504428e-07
26	0x3454c195	1.9814463e-07
27	0x3378dedc	5.794469e-08
28	0x3383fb18	6.1458366e-08
29	0x33082d9f	3.170646e-08
30	0x333bca7d	4.3723492e-08
31	0x33192a85	3.566176e-08
32	0x32c032f7	2.2374918e-08
33	0x32e0121f	2.6085273e-08
34	0x32bdf009	2.2111651e-08
35	0x3289038e	1.5950516e-08
36	0x2f2a6235	1.54963e-10
37	0x2f2a8752	1.5509485e-10
38	0x2f065e43	1.2220717e-10
39	0x2f2c93b9	1.569579e-10
40	0x2f2db68b	1.579911e-10
41	0x2f098656	1.2507803e-10
42	0x2f267d54	1.5142138e-10
43	0x2f27929a	1.5240645e-10
44	0x2f04c951	1.2076852e-10
45	0x2fca0386	3.674609e-10
46	0x2fcc315c	3.7142456e-10
47	0x2fcbf367	3.7098433e-10
48	0x2fe4e180	4.1633186e-10
49	0x2fe716c7	4.203484e-10
50	0x2fe79190	4.2122084e-10
51	0x2fa90306	3.074307e-10
52	0x2faa72f6	3.1004505e-10
53	0x2faa21e2	3.0946895e-10
54	0x2dbdc9f7	2.1576503e-11
55	0x2d834d1c	1.492722e-11
56	0x2ce98ab3	6.637657e-12
57	0x2ddb832e	2.4955673e-11
58	0x2da38a6b	1.8592424e-11
59	0x2d2f07b0	9.949305e-12
60	0x2d8d6a4c	1.607705e-11
61	0x2d5d2f8f	1.2572956e-11
62	0x2d221ecc	9.215472e-12
63	0x2d9704b9	1.716881e-11
64	0x2ddfa370	2.5424746e-11
65	0x2dadbe62	1.975237e-11
66	0x2d1c8cbf	8.898825e-12
67	0x2d6bc664	1.3402255e-11
68	0x2d33bc2c	1.02167545e-11
69	0x2d0a7ca5	7.8720684e-12
70	0x2d403d75	1.0927583e-11
71	0x2d2dcf76	9.879977e-12
72	0x34024d0e	1.2135226e-07
73	0x34e44b54	4.2523118e-07
74	0x34f2b3c3	4.5206806e-07
75	0x341887b0	1.4205466e-07
76	0x34c46747	3.658299e-07
77	0x34408ef5	1.7933401e-07
78	0x3458f6a4	2.0206295e-07
79	0x351604fd	5.5886613e-07
80	0x35314b18	6.6046914e-07
81	0x334c24c0	4.7530875e-08
82	0x334a7a7d	4.7143192e-08
83	0x3337a3f3	4.275712e-08
84	0x33b93681	8.624648e-08
85	0x33de0f83	1.0340502e-07
86	0x33bceb52	8.797237e-08
87	0x33b1ef33	8.285715e-08
88	0x33bf004f	8.894187e-08
89	0x33971e7a	7.037029e-08
90	0x2f83679c	2.390238e-10
91	0x2f9b5629	2.8255556e-10
92	0x2f4a7ce2	1.841616e-10
93	0x2f89ad7a	2.5043417e-10
94	0x2fa1bf56	2.9421682e-10
95	0x2f4f8c52	1.8876392e-10
96	0x2f8656be	2.4436092e-10
97	0x2f9de2cd	2.8719285e-10
98	0x2f4afbc5	1.846124e-10
99	0x3038e17d	6.725925e-10
100	0x303ab76f	6.792708e-10
101	0x3033e296	6.544182e-10
102	0x308f0e56	1.0408694e-09
103	0x3090c85e	1.0534327e-09
104	0x308c6209	1.0214204e-09
105	0x307d4b59	9.214794e-10
106	0x30801bf9	9.321176e-10
107	0x30786654	9.036729e-10
108	0x2cbd217f	5.375422e-12
109	0x2cbff841	5.4561082e-12
110	0x2c33ac83	2.5533193e-12
111	0x2cc83bff	5.691003e-12
112	0x2cdbd44b	6.2479236e-12
113	0x2c533d68	3.001899e-12
114	0x2ca36290	4.6436813e-12
115	0x2ca78f2d	4.762321e-12
116	0x2c24001f	2.330587e-12
117	0x2c45a54f	2.8087148e-12
118	0x2cba42db	5.2938604e-12
119	0x2cb5b285	5.164149e-12
120	0x2c08625e	1.9381367e-12
121	0x2ca2c2f6	4.625962e-12
122	0x2cbd27b4	5.376111e-12
123	0x2bff3f4e	1.813641e-12
124	0x2c81cc51	3.689084e-12
125	0x2ca899d9	4.7919277e-12
126	0x341568fb	1.3914898e-07
127	0x33bc1f9f	8.760184e-08
128	0x34d4bd34	3.962574e-07
129	0x33a49466	7.6638386e-08
130	0x33876c28	6.306101e-08
131	0x3412a4b6	1.3657231e-07
132	0x346020fc	2.0873625e-07
133	0x34ddc46b	4.130737e-07
134	0x3402c708	1.21796e-07
135	0x3248ef28	1.169591e-08
136	0x32589686	1.260708e-08
137	0x3264ef5e	1.33257725e-08
138	0x3289f07f	1.6058264e-08
139	0x3309f501	3.2120628e-08
140	0x32e3e68e	2.6531122e-08
141	0x32b2c204	2.0810155e-08
142	0x3316edfb	3.514104e-08
143	0x32e4a189	2.6616151e-08
144	0x2e6a6e04	5.3303154e-11
145	0x2e9f03ac	7.231135e-11
146	0x2e523b34	4.7801055e-11
147	0x2e7b9b2d	5.7208616e-11
148	0x2ea55db8	7.519979e-11
149	0x2e56bace	4.8823882e-11
150	0x2e733378	5.5297517e-11
151	0x2e9e05ec	7.18606e-11
152	0x2e4e9b38	4.697684e-11
153	0x2ef13f6e	1.09706785e-10
154	0x2efb5bcb	1.1430464e-10
155	0x2ef3ea06	1.10919315e-10
156	0x2ee88937	1.0574513e-10
157	0x2eee89a4	1.0847437e-10
158	0x2edfaade	1.0171218e-10
159	0x2ef8eaaa	1.1319419e-10
160	0x2efd5b30	1.1521306e-10
161	0x2ef93201	1.13320915e-10
162	0x2c97df72	4.3164855e-12
163	0x2d254479	9.394368e-12
164	0x2d543b00	1.2063905e-11
165	0x2cf29bc3	6.8953467e-12
166	0x2d3f6736	1.08800104e-11
167	0x2d65ea2f	1.3069142e-11
168	0x2d1c670b	8.8904535e-12
169	0x2d4f0ea0	1.1769835e-11
170	0x2d66b2bd	1.3113674e-11
171	0x2d2c88ec	9.807471e-12
172	0x2d7644cf	1.399876e-11
173	0x2d7c72ac	1.4350004e-11
174	0x2d3ce7ac	1.0738004e-11
175	0x2d6f6946	1.36089525e-11
176	0x2d756ef7	1.3951277e-11
177	0x2d0387bd	7.476628e-12
178	0x2d0936bd	7.799703e-12
179	0x2d13702b	8.380889e-12
180	0x34563014	1.9947794e-07
181	0x34ab1963	3.1869703e-07
182	0x35064d90	5.003176e-07
183	0x346057ca	2.0893563e-07
184	0x35aca482	1.2862877e-06
185	0x35551628	7.9380925e-07
186	0x34b1243e	3.299519e-07
187	0x34f44554	4.5498984e-07
188	0x348a2507	2.5731444e-07
189	0x32e5092c	2.666328e-08
190	0x3353770c	4.923554e-08
191	0x334b40a1	4.73234e-08
192	0x32fda3b9	2.9527529e-08
193	0x3374409d	5.6869442e-08
194	0x3376a072	5.7422263e-08
195	0x32f9ab57	2.9065331e-08
196	0x333ce501	4.398044e-08
197	0x3342c779	4.5350564e-08
198	0x2f96f051	2.7455596e-10
199	0x2fa43dde	2.9875385e-10
200	0x2f68bfcc	2.1168417e-10
201	0x2f9ca27a	2.849168e-10
202	0x2fabb9d6	3.1236763e-10
203	0x2f7307ed	2.2103537e-10
204	0x2f988d6c	2.7749125e-10
205	0x2fa749bb	3.0429512e-10
206	0x2f69b1ff	2.1254463e-10
207	0x2fdb8629	3.9931194e-10
208	0x2fe28368	4.120253e-10
209	0x2fe2e82f	4.1274137e-10
210	0x30178f3a	5.5137017e-10
211	0x301cc1a0	5.7027627e-10
212	0x301c97ec	5.6968363e-10
213	0x2ff2eb6d	4.4186824e-10
214	0x2ffb36e7	4.5695644e-10
215	0x2ff98860	4.5389736e-10
216	0x2d6ccaa4	1.3460042e-11
217	0x2d10a398	8.221777e-12
218	0x2cc6bfc3	5.6487883e-12
219	0x2d930420	1.6713797e-11
220	0x2d396d09	1.0540243e-11
221	0x2cb6979b	5.1895827e-12
222	0x2d923cb8	1.6625243e-11
223	0x2d35f5db	1.034325e-11
224	0x2c9bf342	4.432372e-12
225	0x2d35a7d9	1.03259285e-11
226	0x2d192530	8.7053e-12
227	0x2c6342b0	3.229566e-12
228	0x2d66fceb	1.3130145e-11
229	0x2d75d37b	1.3973596e-11
230	0x2cece032	6.732414e-12
231	0x2d3964f0	1.0538445e-11
232	0x2d786091	1.411861e-11
233	0x2d135dda	8.376822e-12
234	0x33d2343f	9.7883905e-08
235	0x3487cd1f	2.5294955e-07
236	0x34fd5c23	4.719196e-07
237	0x3513e433	5.509384e-07
238	0x35395b3f	6.905065e-07
239	0x34397293	1.727115e-07
240	0x351fd0f7	5.95362e-07
241	0x347c9910	2.3525013e-07
242	0x347fabce	2.3811228e-07
243	0x334b171a	4.728563e-08
244	0x3322a85d	3.787169e-08
245	0x32ab1d9d	1.9920487e-08
246	0x339a1d1f	7.176481e-08
247	0x3344412e	4.5694087e-08
248	0x32c2397b	2.2610712e-08
249	0x33b430d8	8.390788e-08
250	0x334e4227	4.8023278e-08
251	0x3273b7d4	1.4186259e-08
252	0x2e99b86d	6.990395e-11
253	0x2e93de6f	6.724298e-11
254	0x2ea7a6a3	7.6238814e-11
255	0x2ea0f50f	7.319489e-11

exp_avg f4 [8]
0	0x3691cc24	4.345102e-06
1	0x37bda49b	2.2607206e-05
2	0x36ebd72e	7.028596e-06
3	0xb6abe55c	-5.122898e-06
4	0xb6cb4c79	-6.058774e-06
5	0xb69dc879	-4.7023027e-06
6	0xb7157331	-8.907912e-06
7	0x35c1642e	1.4408777e-06

exp_avg_sq f4 [8]
0	0x31cb0b7a	5.9093823e-09
1	0x322a304e	9.906286e-09
2	0x30a81984	1.2230861e-09
3	0x31daaaa2	6.3640337e-09
4	0x311ce8c6	2.2833304e-09
5	0x30618f6d	8.2058343e-10
6	0x302eed7d	6.363832e-10
7	0x31da3aba	6.3513115e-09

exp_avg f4 [8, 8, 3, 3]
0	0x3703fcfe	7.867113e-06
1	0x378f0081	1.7047163e-05
2	0x375dc8b6	1.3219358e-05
3	0x366927af	3.4742804e-06
4	0x363aac02	2.7816282e-06
5	0xb310f8a6	-3.3753757e-08
6	0xb52e0575	-6.482799e-07
7	0xb4bca08e	-3.5134548e-07
8	0xb6ae145b	-5.187974e-06
9	0x36a686a8	4.9628616e-06
10	0x3581fb70	9.684427e-07
11	0xb6111641	-2.1619637e-06
12	0xb7409bc0	-1.1480355e-05
13	0xb76b2f88	-1.4018158e-05
14	0xb7880813	-1.6216223e-05
15	0xb5b3a1e4	-1.3383656e-06
16	0xb62ceb7b	-2.5767065e-06
17	0x368aa7fb	4.132276e-06
18	0x370f6330	8.546558e-06
19	0x37471718	1.1866701e-05
20	0xb6e65f45	-6.865625e-06
21	0xb6855705	-3.9738393e-06
22	0x3666cea9	3.4392963e-06
23	0x35d1fddd	1.5645597e-06
24	0xb7046b96	-7.892862e-06
25	0xb727d3b4	-1.0003267e-05
26	0xb79d5873	-1.8757046e-05
27	0x368bfe8c	4.172156e-06
28	0x3635852d	2.704862e-06
29	0x36a51ee1	4.920978e-06
30	0xb6f02e34	-7.157936e-06
31	0xb69d26d2	-4.683484e-06
32	0xb7088e1b	-8.139318e-06
33	0xb78f88f6	-1.7110706e-05
34	0xb5910981	-1.0806108e-06
35	0x37cfc7de	2.4769393e-05
36	0xb5816ad8	-9.642345e-07
37	0x36af9019	5.2321816e-06
38	0x36ac8006	5.1409033e-06
39	0x34b66a7d	3.3977622e-07
40	0xb7440fec	-1.16862175e-05
41	0x35e07461	1.6723171e-06
42	0xb403002b	-1.2200387e-07
43	0xb71bf6c7	-9.296177e-06
44	0xb6f89b50	-7.4090567e-06
45	0xb62dbe72	-2.5889863e-06
46	0xb723d0dd	-9.764187e-06
47	0xb68e0539	-4.232538e-06
48	0xb68f5bd6	-4.272423e-06
49	0x362b8852	2.5560335e-06
50	0xb6b2c940	-5.328242e-06
51	0xb66c8c95	-3.524857e-06
52	0xb61faee0	-2.3794637e-06
53	0x372a0761	1.0134508e-05
54	0xb64f1701	-3.0858794e-06
55	0x33dff2a3	1.0428382e-07
56	0x360f33b4	2.1338756e-06
57	0xb71f0fa9	-9.480785e-06
58	0xb6286034	-2.5089948e-06
59	0x36ecaf90	7.0537862e-06
60	0xb5e1d483	-1.6825655e-06
61	0xb70d30f6	-8.4156545e-06
62	0xb7d8b74e	-2.5834564e-05
63	0xb6573e6f	-3.2073838e-06
64	0xb6963cf1	-4.477443e-06
65	0xb6886b72	-4.065624e-06
66	0xb71308a5	-8.7638955e-06
67	0xb708a3ce	-8.14437e-06
68	0xb6e36d4d	-6.7778515e-06
69	0xb643cb43	-2.9175578e-06
70	0x3731dfcc	1.0602129e-05
71	0x3792150d	1.7414359e-05
72	0xb7a2010b	-1.931239e-05
73	0xb7ce2f2b	-2.4579078e-05
74	0xb78d6a0c	-1.6857892e-05
75	0xb7417e37	-1.1533083e-05
76	0xb7791c09	-1.4848084e-05
77	0xb731c4b4	-1.0595821e-05
78	0xb6be58de	-5.6727868e-06
79	0xb7128dcf	-8.7352955e-06
80	0x36bf5d98	5.7031393e-06
81	0xb625571e	-2.4637625e-06
82	0x361a92dc	2.3033272e-06
83	0x36ceb9de	6.160916e-06
84	0xb63de0b2	-2.8293985e-06
85	0x363e9799	2.8400448e-06
86	0x37152280	8.889125e-06
87	0x36a5c7b4	4.9406317e-06
88	0x3731e086	1.0602298e-05
89	0x3714f12e	8.877641e-06
90	0xb757891d	-1.2846923e-05
91	0xb7967045	-1.7933673e-05
92	0x37436589	1.1646546e-05
93	0xb708a354	-8.1442595e-06
94	0x360c4e21	2.0907103e-06
95	0x37263af9	9.908102e-06
96	0x36d382b3	6.3035054e-06
97	0x375b0e4a	1.3056744e-05
98	0x3778805b	1.4811837e-05
99	0x366107e5	3.3532208e-06
100	0x36701bd1	3.5778978e-06
101	0xb7414e5e	-1.1521943e-05
102	0x375c49a4	1.3130168e-05
103	0xb5cc90a9	-1.5241286e-06
104	0xb6ba86f7	-5.558944e-06
105	0x37a4b321	1.9633737e-05
106	0x361a60c0	2.3004104e-06
107	0xb6a0c64b	-4.791456e-06
108	0xb598ff31	-1.1399153e-06
109	0x36374404	2.7308715e-06
110	0x362de41b	2.5911784e-06
111	0x36fe1392	7.572068e-06
112	0x37bce253	2.2516737e-05
113	0x371e11c8	9.421674e-06
114	0x367c037b	3.7552952e-06
115	0x37800ace	1.526382e-05
116	0x3766c55a	1.3755018e-05
117	0x36c5e6dd	5.8979335e-06
118	0x36dea5ff	6.63544e-06
119	0x36b89fcd	5.5022306e-06
120	0x373de1e3	1.1317871e-05
121	0x374ec3aa	1.2324113e-05
122	0x36e7ad3a	6.9045027e-06
123	0x378426e5	1.5753738e-05
124	0x37410945	1.1505855e-05
125	0xb7859e11	-1.5928441e-05
126	0x358712a6	1.0063711e-06
127	0xb6949c57	-4.428944e-06
128	0xb69838f9	-4.5365855e-06
129	0x371df21d	9.414301e-06
130	0x3763e459	1.3583421e-05
131	0x378cd133	1.6786717e-05
132	0xb6257ef0	-2.4660803e-06
133	0x36d09dac	6.2172385e-06
134	0x37453024	1.1753324e-05
135	0x375d079e	1.31744e-05
136	0x3737495e	1.0924732e-05
137	0x36929b14	4.3691925e-06
138	0x373809cd	1.0969537e-05
139	0xb6be4656	-5.6706294e-06
140	0xb681c849	-3.867816e-06
141	0x36458083	2.9430091e-06
142	0xb529245b	-6.301031e-07
143	0xb52f26c0	-6.524897e-07
144	0xb63427c0	-2.6845228e-06
145	0x3669c241	3.4832776e-06
146	0x368ade73	4.138617e-06
147	0xb6a38a9f	-4.873916e-06
148	0x35e2bb33	1.6892794e-06
149	0xb6f2fa04	-7.2412677e-06
150	0xb5cf7c26	-1.5458834e-06
151	0x36893aad	4.089749e-06
152	0xb6a3dfc9	-4.8838306e-06
153	0x369ce526	4.6758387e-06
154	0x36e4cc81	6.818737e-06
155	0x34ae6c82	3.2488975e-07
156	0x372f4be6	1.0448484e-05
157	0x362ffc5f	2.6223931e-06
158	0x357cfb71	9.424321e-07
159	0x36d3477a	6.296611e-06
160	0x36817a33	3.8587254e-06
161	0x367b0605	3.7405418e-06
162	0x370f66f4	8.547435e-06
163	0x373d3963	1.1278639e-05
164	0xb6e24597	-6.743426e-06
165	0x36fe287a	7.574502e-06
166	0x362878e5	2.510432e-06
167	0xb755bda1	-1.2739941e-05
168	0x367e3059	3.7877091e-06
169	0x353a1d84	6.933335e-07
170	0x366981eb	3.4795328e-06
171	0xb54f930d	-7.7327496e-07
172	0x36e9d276	6.968442e-06
173	0x36df8740	6.661663e-06
174	0xb68d282a	-4.206803e-06
175	0x3692364d	4.3574605e-06
176	0x372f053f	1.0432034e-05
177	0xb636207f	-2.7139029e-06
178	0x369d9ca7	4.6972013e-06
179	0x363b4c1a	2.7909468e-06
180	0x36c9f79a	6.0190914e-06
181	0xb687eac8	-4.0506457e-06
182	0xb69575f1	-4.454276e-06
183	0xb69cb32d	-4.670021e-06
184	0xb78d3945	-1.6835178e-05
185	0xb6e495ca	-6.8123672e-06
186	0xb5d639d1	-1.5961069e-06
187	0xb773e8ce	-1.4538133e-05
188	0xb76b6547	-1.4030672e-05
189	0xb5a661bf	-1.2396412e-06
190	0xb6da149d	-6.499306e-06
191	0xb74cdcb2	-1.2210732e-05
192	0xb7512c4a	-1.2467683e-05
193	0xb734a492	-1.0767153e-05
194	0x349fc5c7	2.975996e-07
195	0xb748d15d	-1.1969675e-05
196	0xb743e205	-1.167553e-05
197	0x36816684	3.856434e-06
198	0x362e51d9	2.5975662e-06
199	0x35c8e470	1.4967645e-06
200	0xb616d139	-2.2473525e-06
201	0x368174ba	3.8580883e-06
202	0xb58b72e9	-1.038975e-06
203	0xb6f283a6	-7.227488e-06
204	0x3744853b	1.17135305e-05
205	0x33768868	5.74004e-08
206	0x359fe87a	1.1914083e-06
207	0xb5f7fcae	-1.8476474e-06
208	0x35d6a3f6	1.5991961e-06
209	0x3669cabd	3.4837715e-06
210	0xb636e6b7	-2.7254407e-06
211	0x362919a0	2.5197878e-06
212	0x36623b7c	3.3711249e-06
213	0xb6ca2dc6	-6.025398e-06
214	0xb5e58a43	-1.7102069e-06
215	0xb6aa2099	-5.0701897e-06
216	0x369b3894	4.6259465e-06
217	0x37220576	9.657224e-06
218	0x37250752	9.836471e-06
219	0x3607850d	2.0194013e-06
220	0xb3b0bddf	-8.230176e-08
221	0xb6a1f6f8	-4.826925e-06
222	0x36806d3f	3.827415e-06
223	0x34f6aca2	4.5946678e-07
224	0xb6d16e62	-6.2415356e-06
225	0xb6de4ff5	-6.625424e-06
226	0xb6b69cfa	-5.442297e-06
227	0xb703b01c	-7.849212e-06
228	0xb69cff9b	-4.6789187e-06
229	0xb72dcbbd	-1.035904e-05
230	0xb6be3e90	-5.6697245e-06
231	0xb6816517	-3.856268e-06
232	0xb6671ae0	-3.4437326e-06
233	0xb5e1d20d	-1.6824939e-06
234	0xb69c4592	-4.6572613e-06
235	0xb6bcf593	-5.631425e-06
236	0xb66ea7be	-3.5562402e-06
237	0xb711a497	-8.680995e-06
238	0xb7350c07	-1.0791241e-05
239	0xb6b127eb	-5.279658e-06
240	0xb741114d	-1.1507725e-05
241	0xb635d7be	-2.709668e-06
242	0xb6863a41	-4.000293e-06
243	0xb71bd5cc	-9.288498e-06
244	0x36e72901	6.88911e-06
245	0xb5198080	-5.7183934e-07
246	0xb69bb3a3	-4.6402724e-06
247	0x35ca727d	1.5083493e-06
248	0xb65c6959	-3.2843875e-06
249	0xb61bda6b	-2.3223936e-06
250	0xb65c334b	-3.281241e-06
251	0xb61c8935	-2.3325676e-06
252	0x3644d53b	2.9330392e-06
253	0xb5bb521f	-1.3956486e-06
254	0x36a2e7b1	4.8549487e-06
255	0xb70f2620	-8.532341e-06

exp_avg_sq f4 [8, 8, 3, 3]
0	0x321b74ba	9.048728e-09
1	0x32c74598	2.3198297e-08
2	0x32e7ad21	2.697067e-08
3	0x3175d42b	3.5772796e-09
4	0x328db6b0	1.6497637e-08
5	0x329bb9d6	1.8128883e-08
6	0x326d75c4	1.3821992e-08
7	0x330c45bc	3.2659713e-08
8	0x332253e4	3.7794862e-08
9	0x31a81b8a	4.8925743e-09
10	0x31e1a6a3	6.5673063e-09
11	0x31f380bf	7.0868675e-09
12	0x31712d01	3.5095697e-09
13	0x32099488	8.008222e-09
14	0x322d9eb7	1.0106013e-08
15	0x32c25d6f	2.2627061e-08
16	0x325b649b	1.2770353e-08
17	0x31716d03	3.5132082e-09
18	0x32c1182f	2.2479155e-08
19	0x32f02dfd	2.796059e-08
20	0x32631e46	1.3220022e-08
21	0x31a05205	4.6659374e-09
22	0x323c0966	1.0945177e-08
23	0x321d0f75	9.142117e-09
24	0x32a9cfde	1.9768716e-08
25	0x32a8cf4b	1.965204e-08
26	0x31fe3591	7.3984627e-09
27	0x33213728	3.7535898e-08
28	0x32abfbb1	2.0021476e-08
29	0x32a0586e	1.8666665e-08
30	0x31d44ea9	6.1789547e-09
31	0x3255fc6f	1.24556285e-08
32	0x3289f4de	1.6060252e-08
33	0x3232e3fa	1.04127995e-08
34	0x327a970a	1.45862575e-08
35	0x32d2da38	2.4546452e-08
36	0x31bc74d1	5.4848006e-09
37	0x32098317	8.004256e-09
38	0x324d1a0a	1.1938491e-08
39	0x31d097ea	6.0708674e-09
40	0x32018436	7.5388495e-09
41	0x324119da	1.12399565e-08
42	0x321769e9	8.813438e-09
43	0x32155af4	8.693622e-09
44	0x32303d8c	1.02585425e-08
45	0x31bd7a6e	5.5145426e-09
46	0x32e56310	2.6704157e-08
47	0x332e13ca	4.053053e-08
48	0x31a8edbe	4.9164717e-09
49	0x3321adc6	3.764378e-08
50	0x328f8c1c	1.6711105e-08
51	0x31ff48be	7.4297466e-09
52	0x335b6fa9	5.1091465e-08
53	0x3359db62	5.0723777e-08
54	0x332e688a	4.060761e-08
55	0x32e06719	2.6123915e-08
56	0x31e85b00	6.762434e-09
57	0x332cddb2	4.02485e-08
58	0x332535f1	3.8466116e-08
59	0x32aafe88	1.9906352e-08
60	0x32a35c68	1.9017719e-08
61	0x326aeffd	1.367516e-08
62	0x32227ca2	9.457979e-09
63	0x3342b0ba	4.5329877e-08
64	0x3211be99	8.483448e-09
65	0x327161bc	1.40502685e-08
66	0x3380ddbe	6.000799e-08
67	0x330db409	3.299286e-08
68	0x321b4a07	9.039019e-09
69	0x322b6c4e	9.978136e-09
70	0x32862525	1.5616545e-08
71	0x3247fe95	1.164121e-08
72	0x318069aa	3.737303e-09
73	0x321092e9	8.415307e-09
74	0x321b7133	9.047926e-09
75	0x32266851	9.6861905e-09
76	0x32037d3c	7.653679e-09
77	0x3230a40c	1.0281848e-08
78	0x32940fde	1.7236683e-08
79	0x33135832	3.4306318e-08
80	0x33060ff6	3.1213823e-08
81	0x32aa9d86	1.9862238e-08
82	0x323dc807	1.1046729e-08
83	0x3200327d	7.46206e-09
84	0x33067765	3.1307895e-08
85	0x326ed8fd	1.3902761e-08
86	0x32779c0c	1.4412773e-08
87	0x33377515	4.2714493e-08
88	0x325184eb	1.2195623e-08
89	0x32cbebeb	2.3739593e-08
90	0x3238e6bd	1.0762673e-08
91	0x32c95c48	2.3441444e-08
92	0x328aad6c	1.6144178e-08
93	0x3251293a	1.2174775e-08
94	0x32890ef5	1.59557e-08
95	0x324149df	1.1250875e-08
96	0x32f05aac	2.798091e-08
97	0x32807947	1.4956312e-08
98	0x32a49e17	1.9164004e-08
99	0x32cc4260	2.377891e-08
100	0x320ee138	8.316697e-09
101	0x32d1f337	2.4441404e-08
102	0x32606a2d	1.3062658e-08
103	0x333f7924	4.458083e-08
104	0x333ca619	4.3923226e-08
105	0x32e0486a	2.6109962e-08
106	0x33530fbe	4.9141583e-08
107	0x331b6a47	3.618541e-08
108	0x319cee9a	4.5673234e-09
109	0x32aa6bf6	1.98397e-08
110	0x32954380	1.7376578e-08
111	0x323c57cc	1.0963003e-08
112	0x32a5d99b	1.9307484e-08
113	0x336276bb	5.272771e-08
114	0x320502e6	7.742278e-09
115	0x32d0a71f	2.4290385e-08
116	0x334dbb56	4.7900663e-08
117	0x31837121	3.825463e-09
118	0x322642e3	9.67768e-09
119	0x325291d5	1.2256767e-08
120	0x322e79ce	1.0155828e-08
121	0x31d4e8d8	6.1964833e-09
122	0x328e24b6	1.654767e-08
123	0x3246166c	1.1530215e-08
124	0x337d361d	5.895537e-08
125	0x3327882c	3.9006565e-08
126	0x324c81d4	1.1903882e-08
127	0x3227b965	9.762833e-09
128	0x3205ccde	7.7882e-09
129	0x31f1cebe	7.037527e-09
130	0x327082e4	1.39996e-08
131	0x3191193a	4.2229233e-09
132	0x32775ae3	1.43979575e-08
133	0x32958e2b	1.7410533e-08
134	0x31f5e38a	7.1563067e-09
135	0x327cc4aa	1.4713047e-08
136	0x327cd3cd	1.47164885e-08
137	0x3231e1e1	1.0354115e-08
138	0x330b5b76	3.2446643e-08
139	0x32e0af44	2.6156734e-08
140	0x325835cb	1.2585086e-08
141	0x3224e36a	9.597764e-09
142	0x3200d68d	7.499364e-09
143	0x32531012	1.228547e-08
144	0x318e3551	4.1388053e-09
145	0x31f4d818	7.1259016e-09
146	0x322b9615	9.987635e-09
147	0x321d5947	9.158902e-09
148	0x3256e299	1.2507962e-08
149	0x326b0238	1.3679305e-08
150	0x32ae159b	2.0266091e-08
151	0x32de8435	2.5904322e-08
152	0x32d1e962	2.4436932e-08
153	0x32bc49e6	2.1919686e-08
154	0x32874ef6	1.5751976e-08
155	0x321d26cb	9.147423e-09
156	0x3331ef68	4.1428763e-08
157	0x327be96a	1.4663195e-08
158	0x324c8e5d	1.19067325e-08
159	0x33309d77	4.1121407e-08
160	0x32837b3c	1.5306448e-08
161	0x32aa953c	1.9858469e-08
162	0x322bd46e	1.0001811e-08
163	0x327d0e57	1.4729799e-08
164	0x326bcdc9	1.372559e-08
165	0x3290b208	1.6844766e-08
166	0x32c50007	2.293383e-08
167	0x320298b2	7.601715e-09
168	0x330bf113	3.2582715e-08
169	0x326dd415	1.38434375e-08
170	0x3265654f	1.3352589e-08
171	0x32977208	1.7630569e-08
172	0x324fedcf	1.2103057e-08
173	0x328067f3	1.4948432e-08
174	0x3218e76c	8.900184e-09
175	0x330d807c	3.2945977e-08
176	0x32ef128f	2.7831701e-08
177	0x32c1ec0f	2.2575504e-08
178	0x33450af4	4.58776e-08
179	0x329fdb6b	1.8609816e-08
180	0x31d4e6f9	6.1962706e-09
181	0x321c677a	9.103923e-09
182	0x325de05b	1.2914906e-08
183	0x32233f07	9.5021795e-09
184	0x32b90a82	2.1541613e-08
185	0x330b44bd	3.2425977e-08
186	0x321e2e94	9.207401e-09
187	0x3289aca5	1.6027409e-08
188	0x334f2c15	4.8236036e-08
189	0x317f2981	3.7130976e-09
190	0x319bce62	4.5345567e-09
191	0x321c38e1	9.093328e-09
192	0x3201beaf	7.552145e-09
193	0x32137d16	8.584967e-09
194	0x327922da	1.4501632e-08
195	0x32636743	1.3236618e-08
196	0x3324537a	3.8260147e-08
197	0x32c254d6	2.2623151e-08
198	0x31d83af8	6.2931313e-09
199	0x31b14302	5.158996e-09
200	0x32156d8e	8.697851e-09
201	0x323af0ad	1.0881348e-08
202	0x323cd7f2	1.09921405e-08
203	0x31c8160d	5.823273e-09
204	0x31f8d511	7.241973e-09
205	0x31f46ab7	7.1134667e-09
206	0x31ca9853	5.896291e-09
207	0x32284178	9.793773e-09
208	0x328a843f	1.6125453e-08
209	0x31ddb28a	6.452244e-09
210	0x32741c43	1.4209095e-08
211	0x31b2bd29	5.201987e-09
212	0x32087c2e	7.944477e-09
213	0x3224f586	9.601882e-09
214	0x3233db85	1.0469084e-08
215	0x3209512a	7.992904e-09
216	0x30adb3f8	1.2638557e-09
217	0x31374e34	2.6674458e-09
218	0x31911740	4.2226986e-09
219	0x312e4b71	2.5363216e-09
220	0x318ee46d	4.158713e-09
221	0x31fc3aa8	7.3408337e-09
222	0x318ffd37	4.190635e-09
223	0x320d05f8	8.208637e-09
224	0x32376fea	1.0677448e-08
225	0x32468ed6	1.1557594e-08
226	0x325dd5b9	1.2912488e-08
227	0x32532ce9	1.2292028e-08
228	0x31f83591	7.2238397e-09
229	0x3210e96f	8.43498e-09
230	0x321c5cc3	9.101487e-09
231	0x31df7572	6.503506e-09
232	0x31ad1941	5.0378337e-09
233	0x31ea8e9c	6.826509e-09
234	0x32194600	8.921688e-09
235	0x31cda310	5.9848233e-09
236	0x32352614	1.0544245e-08
237	0x31f43d78	7.108323e-09
238	0x3269d44b	1.3610655e-08
239	0x32436eca	1.1375684e-08
240	0x31efb6bb	6.9765895e-09
241	0x32371442	1.0656608e-08
242	0x32023788	7.579622e-09
243	0x320423a1	7.691512e-09
244	0x323f1ca4	1.1124175e-08
245	0x322a0eef	9.898698e-09
246	0x31efbc58	6.9772277e-09
247	0x31b5411f	5.2751967e-09
248	0x323d1681	1.1006365e-08
249	0x31b4cf45	5.2622533e-09
250	0x3285c7d3	1.5574107e-08
251	0x325d0070	1.28639925e-08
252	0x317c82e5	3.6745231e-09
253	0x314d9a75	2.9919225e-09
254	0x318dcfbf	4.127258e-09
255	0x31fc699b	7.3461712e-09

exp_avg f4 [8]
0	0xb4372a24	-1.7058534e-07
1	0xb59eafa1	-1.1823032e-06
2	0x358d81a1	1.0543046e-06
3	0x3701b2e2	7.730649e-06
4	0x35942811	1.103852e-06
5	0x37023b84	7.762461e-06
6	0xb78d547d	-1.6847853e-05
7	0x36115dbe	2.166125e-06

exp_avg_sq f4 [8]
0	0x2f25c015	1.5074904e-10
1	0x309361bb	1.0723434e-09
2	0x314d4d48	2.9875356e-09
3	0x30c79655	1.4521883e-09
4	0x3205be81	7.7849345e-09
5	0x30ef0345	1.7390468e-09
6	0x315b312c	3.1896645e-09
7	0x308efe16	1.0404075e-09

exp_avg f4 [8, 10, 3, 3]
0	0x35a66c8d	1.2399556e-06
1	0x34a1f7c5	3.0168863e-07
2	0x3741f779	1.1561316e-05
3	0x36ac03ae	5.126428e-06
4	0x351410e3	5.515887e-07
5	0x35a7b94f	1.2496401e-06
6	0xb51125bf	-5.4071637e-07
7	0x369add84	4.6153455e-06
8	0xb6eb94ff	-7.020891e-06
9	0x35807ee0	9.573669e-07
10	0x37210c2f	9.5991845e-06
11	0x35d266db	1.5676154e-06
12	0xb45353ba	-1.9681366e-07
13	0x37171cc9	9.007003e-06
14	0x36251219	2.459745e-06
15	0x37098cdb	8.198632e-06
16	0x37371919	1.09134935e-05
17	0x37368b3e	1.0880465e-05
18	0xb4700068	-2.235189e-07
19	0xb73acdf3	-1.1134415e-05
20	0xb61f65f7	-2.3752198e-06
21	0xb6a2f710	-4.856738e-06
22	0xb585ae35	-9.959973e-07
23	0xb565ce53	-8.560939e-07
24	0xb6c00e6a	-5.723724e-06
25	0xb66c75c8	-3.5235298e-06
26	0xb5993780	-1.1415541e-06
27	0x3635dfaf	2.7101303e-06
28	0x35484c41	7.461677e-07
29	0xb6cb6587	-6.061691e-06
30	0xb5df235e	-1.6625088e-06
31	0x371a87dd	9.210748e-06
32	0xb755b56d	-1.2738031e-05
33	0x3584277c	9.846258e-07
34	0xb57092d7	-8.962065e-07
35	0xb7340cee	-1.07318465e-05
36	0x359303f9	1.095351e-06
37	0xb72c39a1	-1.0265417e-05
38	0x324151a5	1.1252642e-08
39	0xb5113fb3	-5.4109404e-07
40	0x361446bd	2.2094894e-06
41	0x36d5ea82	6.375195e-06
42	0xb5259777	-6.16877e-07
43	0x3662b553	3.378217e-06
44	0xb65f1989	-3.3244453e-06
45	0x36b17251	5.2883192e-06
46	0x36051908	1.9833114e-06
47	0xb6645236	-3.40225e-06
48	0xb66694fc	-3.435939e-06
49	0x375ed1c5	1.3281072e-05
50	0xb747af06	-1.1902075e-05
51	0x35e5c23a	1.7118357e-06
52	0xb55d3d1e	-8.241785e-07
53	0xb72cc8c9	-1.0298748e-05
54	0xb5f706d0	-1.8404917e-06
55	0x36cc36ec	6.0860675e-06
56	0x3781c0ff	1.546787e-05
57	0x36590007	3.2335536e-06
58	0xb7315f9a	-1.0572281e-05
59	0x373db9dc	1.1308552e-05
60	0x360bca2b	2.0830291e-06
61	0xb64d4e76	-3.059305e-06
62	0x36f39716	7.259553e-06
63	0x36a50ff7	4.9192417e-06
64	0x37294eab	1.0091501e-05
65	0x3695ccce	4.4643884e-06
66	0xb6498219	-3.002706e-06
67	0x372700d6	9.95417e-06
68	0x369e51c8	4.7182875e-06
69	0xb5130bb0	-5.4778775e-07
70	0x35651d28	8.5351576e-07
71	0xb504abcd	-4.9423835e-07
72	0x36abc3c0	5.1189854e-06
73	0x373f3649	1.1397126e-05
74	0x3747deb3	1.19131755e-05
75	0x3435ad7f	1.6920056e-07
76	0x370c3c71	8.358723e-06
77	0x37497d22	1.2009668e-05
78	0xb7028ca2	-7.781347e-06
79	0x35577fdb	8.0279796e-07
80	0x36be85e0	5.6780264e-06
81	0xb6de0db0	-6.617709e-06
82	0xb74289e6	-1.1595408e-05
83	0xb74e2b2e	-1.228861e-05
84	0x35bc2739	1.4018507e-06
85	0xb6ad1983	-5.1587717e-06
86	0xb6a659cf	-4.9576406e-06
87	0x36eca4b0	7.0525202e-06
88	0x358b1cf5	1.0364735e-06
89	0x34e5a1c5	4.2772277e-07
90	0x35e3cdd9	1.6972728e-06
91	0xb74ca3ff	-1.2197531e-05
92	0xb75bcff4	-1.3101835e-05
93	0x36b6a0de	5.44275e-06
94	0xb40cabd2	-1.3101024e-07
95	0xb647cf38	-2.9773928e-06
96	0x3700324b	7.641104e-06
97	0x37449794	1.1717802e-05
98	0x36375288	2.7317164e-06
99	0xb78bbd60	-1.6658276e-05
100	0x358a1559	1.0288014e-06
101	0x36861a55	3.9965767e-06
102	0xb78cb04d	-1.6771397e-05
103	0x36f9ac63	7.4408467e-06
104	0x3740adc5	1.1484551e-05
105	0xb79ba550	-1.855442e-05
106	0x3684e1c8	3.960191e-06
107	0x36efed1c	7.150358e-06
108	0x37897002	1.638383e-05
109	0x36959b62	4.458635e-06
110	0x34b75b2a	3.4152737e-07
111	0x3728b421	1.005552e-05
112	0xb72bc8f8	-1.0239186e-05
113	0xb6f4e1c4	-7.2980492e-06
114	0x3631989a	2.646388e-06
115	0xb731e043	-1.0602237e-05
116	0xb705a444	-7.965664e-06
117	0xb70a9b57	-8.261609e-06
118	0x364f3920	3.0878655e-06
119	0xb66f1d84	-3.5630956e-06
120	0xb6ab07df	-5.0971134e-06
121	0x3728d697	1.0063543e-05
122	0x36f48717	7.287493e-06
123	0x36d5e7f0	6.3748957e-06
124	0x37990adb	1.8244076e-05
125	0x36cb1954	6.05282e-06
126	0x3765c810	1.3696044e-05
127	0x363e69fd	2.83739e-06
128	0xb606fb30	-2.0113766e-06
129	0x37523814	1.2530032e-05
130	0xb70afadb	-8.283848e-06
131	0xb71f5933	-9.497907e-06
132	0x372752bf	9.9732415e-06
133	0x35db60ef	1.6344983e-06
134	0x36dc5538	6.5664317e-06
135	0xb73e55ac	-1.13448295e-05
136	0x35803e24	9.554828e-07
137	0xb6db096b	-6.527805e-06
138	0xb701f37b	-7.745689e-06
139	0x36cc314f	6.085414e-06
140	0x36decffa	6.6403272e-06
141	0x36503f81	3.103138e-06
142	0x37893a1e	1.6358736e-05
143	0x36cb05ec	6.050561e-06
144	0x32bc231c	2.1902046e-08
145	0xb732240d	-1.06180205e-05
146	0xb580fc5f	-9.610193e-07
147	0x3739d503	1.1076455e-05
148	0x34cf1d8a	3.8578247e-07
149	0x3494e121	2.773095e-07
150	0x369f3938	4.7452304e-06
151	0xb690cf5a	-4.3156733e-06
152	0xb6a24566	-4.8360553e-06
153	0xb72b4de8	-1.0210533e-05
154	0xb70a1d4c	-8.232262e-06
155	0xb74bc604	-1.2145847e-05
156	0xb357bdc1	-5.023117e-08
157	0xb5dc7dfe	-1.6427946e-06
158	0x3728e528	1.0066935e-05
159	0x37015a92	7.710087e-06
160	0x37324169	1.0624856e-05
161	0x3707dbdb	8.097816e-06
162	0x3700c1bc	7.674502e-06
163	0x37045068	7.886534e-06
164	0x3719c6f8	9.165837e-06
165	0xb65dc6e3	-3.3047334e-06
166	0xb714e4ee	-8.874789e-06
167	0xb71ce8f7	-9.352566e-06
168	0xb69ae09f	-4.615707e-06
169	0xb75078a0	-1.2425851e-05
170	0xb770b18e	-1.4346455e-05
171	0x37312c65	1.05603585e-05
172	0xb4ad6566	-3.2297538e-07
173	0xb71b62ce	-9.261725e-06
174	0x349b859d	2.8968216e-07
175	0xb701a8a8	-7.7282675e-06
176	0xb7518d4d	-1.249027e-05
177	0xb71c4d2d	-9.3162935e-06
178	0xb7890295	-1.6332875e-05
179	0xb7a78280	-1.996872e-05
180	0x362faf0b	2.617892e-06
181	0xb6e93911	-6.9505845e-06
182	0xb73e5254	-1.1344051e-05
183	0xb65eb69d	-3.3186873e-06
184	0x3733421d	1.0684625e-05
185	0x35812120	9.62089e-07
186	0x361f49c8	2.3735793e-06
187	0xb52f6607	-6.534105e-07
188	0x36502a12	3.1018903e-06
189	0xb70884d6	-8.13716e-06
190	0x35baa4be	1.3906026e-06
191	0xb688d57c	-4.0779687e-06
192	0x35afe952	1.3106421e-06
193	0x3558142e	8.0495636e-07
194	0xb6ad32e3	-5.1617258e-06
195	0xb6335ef2	-2.6728344e-06
196	0xb5509069	-7.769618e-07
197	0xb6e70525	-6.8849354e-06
198	0x35a1c0ac	1.205151e-06
199	0x354f7085	7.7277247e-07
200	0x3596da2c	1.1239367e-06
201	0x3410eef9	1.3497983e-07
202	0xb61e91ff	-2.3628816e-06
203	0x36f82ade	7.3959663e-06
204	0xb617c29a	-2.2614026e-06
205	0xb5a91104	-1.2596433e-06
206	0x35931238	1.0957656e-06
207	0xb6f016d5	-7.1552154e-06
208	0x367e1209	3.7859447e-06
209	0xb7374f74	-1.0926149e-05
210	0x3639c38d	2.7680974e-06
211	0xb64bec57	-3.0386925e-06
212	0xb5aaab5b	-1.2715858e-06
213	0xb4a828a8	-3.132202e-07
214	0x357b758c	9.367584e-07
215	0xb541aa3d	-7.214583e-07
216	0x36eb4f37	7.0127676e-06
217	0x36c769a5	5.942961e-06
218	0xb6351fab	-2.6989535e-06
219	0x3636105a	2.7129631e-06
220	0xb63a2a0a	-2.774063e-06
221	0x358c7c31	1.0466957e-06
222	0xb5d1d460	-1.5633523e-06
223	0xb66cf8c5	-3.5311543e-06
224	0x35cdcc30	1.5333117e-06
225	0xb715921f	-8.9151135e-06
226	0x36c10b42	5.753159e-06
227	0xb724bca8	-9.819087e-06
228	0x3642e94f	2.9044056e-06
229	0xb688507a	-4.0624845e-06
230	0x35aa1285	1.2671377e-06
231	0xb4a89a56	-3.1404733e-07
232	0x3607adf1	2.0217815e-06
233	0x3527468f	6.2315024e-07
234	0x36f94a75	7.429446e-06
235	0xb6d4d2c5	-6.342629e-06
236	0x374fc353	1.2383639e-05
237	0x35bac0e4	1.3914218e-06
238	0x3717b9b7	9.0435415e-06
239	0xb5de82bb	-1.6578336e-06
240	0x369ffb7a	4.767845e-06
241	0x36a94209	5.04428e-06
242	0x370ca492	8.382967e-06
243	0xb6bc0d33	-5.604373e-06
244	0xb6495b57	-3.00045e-06
245	0x36b19257	5.2920473e-06
246	0x3709bf96	8.210443e-06
247	0xb5ab648b	-1.2769755e-06
248	0x35030fca	4.882428e-07
249	0x36a844ca	5.0147983e-06
250	0x36af04a2	5.2159457e-06
251	0x36d6370e	6.384106e-06
252	0x36b464a0	5.3761323e-06
253	0x372d557e	1.0331509e-05
254	0x37525036	1.2535651e-05
255	0x36a46069	4.8988045e-06

exp_avg_sq f4 [8, 10, 3, 3]
0	0x3277b254	1.4417839e-08
1	0x31ce2e92	6.0006835e-09
2	0x322571c1	9.630129e-09
3	0x32063470	7.8117495e-09
4	0x31fb2475	7.309206e-09
5	0x31c40e1e	5.7059557e-09
6	0x31e83498	6.758068e-09
7	0x32486cd9	1.1666281e-08
8	0x3290a7ed	1.684017e-08
9	0x3213f89b	8.6130525e-09
10	0x324b8912	1.1847321e-08
11	0x3266ab7a	1.3426751e-08
12	0x32545792	1.2359935e-08
13	0x32652bd9	1.3339524e-08
14	0x32b90d12	2.1542778e-08
15	0x31a9c61e	4.9410707e-09
16	0x31beea91	5.556395e-09
17	0x330e8079	3.3178797e-08
18	0x321a14db	8.968722e-09
19	0x3269edbb	1.3616439e-08
20	0x32517582	1.2192119e-08
21	0x323134d0	1.0314764e-08
22	0x32304874	1.0261022e-08
23	0x32969cca	1.7533598e-08
24	0x31edf9b8	6.9259976e-09
25	0x3203a3df	7.6624636e-09
26	0x326d7bef	1.3823395e-08
27	0x322aa30a	9.932373e-09
28	0x31d70a23	6.258476e-09
29	0x31db4b2f	6.3822863e-09
30	0x323c9dcc	1.0978919e-08
31	0x31f0bd38	7.006431e-09
32	0x31e2f0f7	6.60486e-09
33	0x323a6bc5	1.0851129e-08
34	0x323dd1d9	1.1048962e-08
35	0x31dd8eef	6.448196e-09
36	0x3220b05e	9.353327e-09
37	0x32a8d494	1.9654443e-08
38	0x31c0a468	5.6066263e-09
39	0x32c562b3	2.2978702e-08
40	0x31e66b51	6.7060815e-09
41	0x31b82430	5.359219e-09
42	0x324a2a20	1.1767526e-08
43	0x31e16f05	6.5609833e-09
44	0x32713b12	1.4041477e-08
45	0x3224c6ea	9.591284e-09
46	0x32047dc1	7.712004e-09
47	0x31cdd0b5	5.9900125e-09
48	0x323cc6ca	1.098824e-08
49	0x322921bf	9.844768e-09
50	0x31fd6ad2	7.375413e-09
51	0x3252edc3	1.22776695e-08
52	0x3230d869	1.0293754e-08
53	0x31c1e67f	5.6432437e-09
54	0x31304060	2.5647964e-09
55	0x3241a554	1.127167e-08
56	0x31d7be9c	6.2789933e-09
57	0x31ed78ad	6.911327e-09
58	0x32676194	1.3468156e-08
59	0x324bf596	1.1871995e-08
60	0x32d0c5b7	2.4304297e-08
61	0x320b06ea	8.092437e-09
62	0x327c1f78	1.4675486e-08
63	0x32847511	1.5420058e-08
64	0x324d779c	1.19597665e-08
65	0x31f0ec7d	7.011805e-09
66	0x322bc674	9.998633e-09
67	0x31fa4fd0	7.2850312e-09
68	0x3228576d	9.798765e-09
69	0x31ec257d	6.872766e-09
70	0x32063a8f	7.813141e-09
71	0x326f1948	1.3917379e-08
72	0x32421f58	1.1299413e-08
73	0x321d1207	9.142702e-09
74	0x3219aebf	8.945505e-09
75	0x31f73b73	7.1954047e-09
76	0x32023c80	7.580752e-09
77	0x3253f69c	1.2337889e-08
78	0x3252bb02	1.22661294e-08
79	0x327c0685	1.4669813e-08
80	0x32b41c5c	2.0967654e-08
81	0x32857097	1.5534438e-08
82	0x3289ecac	1.6056525e-08
83	0x32d2147a	2.445653e-08
84	0x32a1a563	1.8818076e-08
85	0x3292b09c	1.707695e-08
86	0x32d5a1e5	2.4870085e-08
87	0x324d6fdc	1.1958004e-08
88	0x32107ed1	8.410738e-09
89	0x3284555a	1.5405636e-08
90	0x31c650e3	5.771754e-09
91	0x328dc152	1.6502472e-08
92	0x30ead04c	1.7084942e-09
93	0x33142205	3.4489876e-08
94	0x32524a27	1.2240469e-08
95	0x31658489	3.3399223e-09
96	0x320245d9	7.582877e-09
97	0x31af5aaf	5.10348e-09
98	0x321014c2	8.386623e-09
99	0x321d79da	9.166309e-09
100	0x322528f9	9.61358e-09
101	0x31d21112	6.113745e-09
102	0x32eb4ce8	2.7392574e-08
103	0x32434aed	1.136753e-08
104	0x3272693b	1.4110181e-08
105	0x329a80db	1.7986556e-08
106	0x321c3dff	9.094491e-09
107	0x32458411	1.1496938e-08
108	0x31b3e106	5.235168e-09
109	0x31d2f978	6.1401657e-09
110	0x3233d006	1.046647e-08
111	0x31cc5825	5.9472023e-09
112	0x32394a27	1.0785278e-08
113	0x32bd2ec4	2.2023762e-08
114	0x320b7ecd	8.119696e-09
115	0x327db948	1.4768666e-08
116	0x32a39573	1.9043659e-08
117	0x3253a4b5	1.23192665e-08
118	0x31a6dd6b	4.856408e-09
119	0x3221a4ad	9.408876e-09
120	0x3258ac8c	1.2612087e-08
121	0x31f86f9f	7.23044e-09
122	0x3297077a	1.7582114e-08
123	0x323b05cc	1.0886151e-08
124	0x31f463f1	7.1126967e-09
125	0x326b9d50	1.3714569e-08
126	0x31bc2ed0	5.476842e-09
127	0x31645406	3.3226129e-09
128	0x3183bf06	3.8343186e-09
129	0x31d59b62	6.216781e-09
130	0x3200a49f	7.488011e-09
131	0x3216dbd2	8.7811305e-09
132	0x32574659	1.2530642e-08
133	0x320dc1f2	8.251378e-09
134	0x3282375b	1.5159165e-08
135	0x324d605a	1.1954478e-08
136	0x31ff51ca	7.430775e-09
137	0x32015640	7.528399e-09
138	0x323118c0	1.03083835e-08
139	0x31dd1a1a	6.434914e-09
140	0x327fdc5b	1.4893057e-08
141	0x322f12f9	1.01906545e-08
142	0x31d722d3	6.2612826e-09
143	0x325382d1	1.2311561e-08
144	0x3264bb6d	1.3313962e-08
145	0x32474357	1.1598636e-08
146	0x320ab600	8.074039e-09
147	0x32747a79	1.4230516e-08
148	0x31c932a7	5.8556284e-09
149	0x31e550bc	6.6739556e-09
150	0x324a8be1	1.1789752e-08
151	0x31cd63b5	5.9776206e-09
152	0x3220cccf	9.359794e-09
153	0x3256458b	1.2472252e-08
154	0x3128ca7a	2.4562312e-09
155	0x31955c76	4.3469823e-09
156	0x327c3084	1.4679362e-08
157	0x3194e2b0	4.3331383e-09
158	0x321fb5ca	9.296352e-09
159	0x31c65ae3	5.772891e-09
160	0x31a891bf	4.906013e-09
161	0x3209aeba	8.014178e-09
162	0x3239531a	1.0787312e-08
163	0x3237a4b7	1.0689454e-08
164	0x3238d90a	1.0759559e-08
165	0x327f6554	1.4865993e-08
166	0x3292ec4e	1.7104096e-08
167	0x32dfe779	2.6065878e-08
168	0x32a03c36	1.8653832e-08
169	0x32cbdb91	2.3732158e-08
170	0x331fd8db	3.72173e-08
171	0x331a41cb	3.5915757e-08
172	0x335cbc31	5.13939e-08
173	0x3336d586	4.2569376e-08
174	0x3328e52d	3.9323982e-08
175	0x335153bf	4.873777e-08
176	0x331d57e8	3.663436e-08
177	0x33064a3b	3.126682e-08
178	0x3322d40d	3.7911423e-08
179	0x32f8fafb	2.8985133e-08
180	0x318d15ba	4.10611e-09
181	0x323bf940	1.09415055e-08
182	0x32feabe5	2.964766e-08
183	0x321abf3c	9.007461e-09
184	0x33189955	3.5529713e-08
185	0x3204d223	7.731191e-09
186	0x3226f67f	9.718518e-09
187	0x3362ebd0	5.2834196e-08
188	0x32d5b0d7	2.4876881e-08
189	0x31a2ded0	4.7401514e-09
190	0x31b5d103	5.291555e-09
191	0x32b436d3	2.0979689e-08
192	0x3261bbee	1.3139454e-08
193	0x32c6eed6	2.3158844e-08
194	0x32600911	1.30405775e-08
195	0x32275330	9.739594e-09
196	0x3205b4c5	7.782721e-09
197	0x32010b05	7.511294e-09
198	0x319c5bd9	4.5506394e-09
199	0x31fa4b02	7.284485e-09
200	0x32849416	1.5434164e-08
201	0x31b7fc7e	5.354706e-09
202	0x32b61129	2.1195392e-08
203	0x327e0582	1.4785998e-08
204	0x3218f045	8.902195e-09
205	0x3219fc2e	8.963111e-09
206	0x322beb2b	1.0006981e-08
207	0x31bc80bb	5.486155e-09
208	0x31801f1b	3.7288266e-09
209	0x3206c51e	7.844646e-09
210	0x31ffd21c	7.4453634e-09
211	0x32b3d034	2.0933022e-08
212	0x3266643c	1.3410553e-08
213	0x30ef29e0	1.740144e-09
214	0x3205b8b3	7.783615e-09
215	0x316b1081	3.4206382e-09
216	0x31f69c7c	7.1773325e-09
217	0x31e78d30	6.739036e-09
218	0x32b9f9fc	2.1650514e-08
219	0x319829b7	4.4285247e-09
220	0x32d281e8	2.4506292e-08
221	0x330691f7	3.133206e-08
222	0x325a2a16	1.2698839e-08
223	0x3269ddd4	1.3612823e-08
224	0x3233c354	1.0463584e-08
225	0x31ca37d5	5.885321e-09
226	0x31a74701	4.868412e-09
227	0x32025061	7.585272e-09
228	0x320f8c8f	8.355655e-09
229	0x32f2b578	2.825503e-08
230	0x32a4be46	1.917864e-08
231	0x311525df	2.170388e-09
232	0x31d0841b	6.0686154e-09
233	0x31a64812	4.8394293e-09
234	0x31355ce0	2.639176e-09
235	0x31dd4ea3	6.4408865e-09
236	0x31f1db6a	7.0389676e-09
237	0x31172eb0	2.199993e-09
238	0x32b9847e	2.1597085e-08
239	0x324a92af	1.17912995e-08
240	0x31fe8cce	7.4083806e-09
241	0x3197b525	4.415272e-09
242	0x318f1367	4.1640535e-09
243	0x322caf85	1.0051626e-08
244	0x32c1bf28	2.2555085e-08
245	0x32301afb	1.0250683e-08
246	0x32259257	9.637538e-09
247	0x31ca9dc7	5.896911e-09
248	0x31ddcfd1	6.4555725e-09
249	0x323c032f	1.0943764e-08
250	0x32ce78a2	2.4036414e-08
251	0x32a54353	1.9239144e-08
252	0x31e251b7	6.5867556e-09
253	0x32088eca	7.948708e-09
254	0x321cb8b3	9.122391e-09
255	0x322647cf	9.678799e-09

exp_avg f4 [8]
0	0x36080f0e	2.0274342e-06
1	0xb703281e	-7.817549e-06
2	0xb607dba7	-2.0244422e-06
3	0x35fa26b8	1.863772e-06
4	0x3600df6c	1.9203535e-06
5	0x34ff4b18	4.755209e-07
6	0xb5a48334	-1.2257137e-06
7	0xb6b215ee	-5.3073663e-06

exp_avg_sq f4 [8]
0	0x306cae89	8.610433e-10
1	0x308dbc33	1.031259e-09
2	0x30544846	7.722786e-10
3	0x316cd5f0	3.446413e-09
4	0x301c5aed	5.688168e-10
5	0x305d628f	8.053939e-10
6	0x2f89f973	2.50974e-10
7	0x30353af9	6.593122e-10
